TensorFlowAITraining/model/model.pth (torch, 9536 bytes, 4 tensors)

linear1.weight f4 [128, 11]
000000 f9 52 42 3f e9 49 26 bf b2 97 88 3e de 39 a8 be
       0.75907856 -0.6495653 0.26678234 -0.3285665
000010 3d c4 12 bf b3 e7 56 3d b0 04 d1 bc 35 80 9c 3e
       -0.57330686 0.05246706 -0.02551493 0.30566564
000020 b7 4a a7 3e f6 f7 45 be 85 c9 18 be ec a1 d5 be
       0.3267419 -0.19332871 -0.14920624 -0.417251
000030 e5 53 3f 3e 0b 80 a7 3d da fa 14 3f eb 4c 44 bf
       0.18684347 0.08178719 0.5819527 -0.7667987
000040 d5 29 a3 3e 6a a9 8f 3e eb 0f f0 bd cf 60 39 bf
       0.31867853 0.2805894 -0.11721786 -0.72413343
000050 48 c5 70 bd dc 4a 20 bd 43 d4 67 3e 54 4e 65 3d
       -0.058781892 -0.03913389 0.22639565 0.055982903
000060 2a 3c a4 bb 07 df f7 3e 89 4d 99 3e dd 1c 2b bd
       -0.005012055 0.48412344 0.29941967 -0.041775573
000070 10 4b 18 bf 5f c3 f1 be d2 6d bc be 75 42 18 3a
       -0.59489536 -0.4721937 -0.36802536 0.0005808243
000080 5c 97 01 3f 77 e2 84 be f5 40 a1 be 8c 54 a5 bd
       0.5062158 -0.2595403 -0.3149487 -0.08072767
000090 b6 e4 14 3f 6e 1f 25 be 0d 09 0a bf 44 c6 22 3f
       0.58161485 -0.1612527 -0.5392006 0.6358378
0000a0 96 a8 89 3e 01 2a 11 bf 8a 1b 9e be 62 3e d8 3e
       0.26886433 -0.5670472 -0.30880386 0.42235094
0000b0 11 8f b3 3d c1 63 0c 3f 82 9a 0e 3f c6 ed ea be
       0.08767522 0.5483971 0.5570451 -0.45884532
0000c0 d3 ae 93 3e b5 b8 a0 3e 61 77 d9 be 48 85 07 3f
       0.28844318 0.3139092 -0.4247389 0.52937746
0000d0 eb ae aa be 7e 0e 90 be 02 d1 86 3e 8a ab 21 3f
       -0.33336577 -0.28136057 0.26331335 0.6315237
0000e0 24 ac cd be 1b 34 91 be e5 15 c2 bd 1d 7f b7 3c
       -0.40170395 -0.28360066 -0.09476832 0.02239948
0000f0 43 88 06 3e a8 7f a1 3c 67 99 96 3d 88 18 0a 3e
       0.13137917 0.019714192 0.07353478 0.1348592
000100 61 f8 8e bd 02 d5 12 bd ca fb e3 be 2c 81 ed bd
       -0.06980968 -0.03584767 -0.44528037 -0.11596903
000110 55 fa de 3e 3f 2c cd 3e bd b8 30 3e 5f 07 d0 3e
       0.43550363 0.4007282 0.17257972 0.40630624
000120 73 82 b9 be b7 d3 92 3e 20 3a 84 3e e9 5f 2a 3e
       -0.36232337 0.2867715 0.25825596 0.1663815
000130 1d 9d 0b bf 9b 31 11 3f bc dc 33 3f f6 55 57 bf
       -0.5453661 0.56716317 0.7025869 -0.8411554
000140 24 08 7a bd 8d bb f3 3d 67 b4 9e 3d 9b 78 df be
       -0.06104292 0.11901007 0.07749253 -0.43646702
000150 1a 39 d7 3d 75 18 8a be c9 fa 1f be 35 4e 5a 3d
       0.10508938 -0.26971784 -0.1562301 0.05329724
000160 5f 15 1b bd c6 c2 37 be cd 28 93 be fa 0b 45 3e
       -0.037862178 -0.17945394 -0.28742066 0.1924285
000170 86 de e2 3d 47 9d 94 be b7 82 6a 3e 81 4e 03 3e
       0.11077599 -0.29026243 0.22901426 0.12822916
000180 a4 1f 68 3d 86 40 e2 3b d3 18 ba bd e8 ae 85 3c
       0.0566708 0.0069046644 -0.09086766 0.016318753
000190 c6 61 83 be ac d0 f5 bd 7e 4f 18 3f c9 6f 79 be
       -0.25660533 -0.120026916 0.59496295 -0.24359049
0001a0 be ce 0c be 6b 1f 3f 3e 8a c7 eb be 86 b2 30 be
       -0.13750741 0.18664329 -0.46050674 -0.17255601
0001b0 b7 9e 76 3d 6c 73 1b bf a7 ac 2a 3f a1 ef 0c bf
       0.060209956 -0.60722995 0.66669697 -0.55053145
0001c0 74 24 06 be 1f 02 32 3e 96 ce fb bb 6f 2b 46 3e
       -0.13099843 0.17383622 -0.007684539 0.19352506
0001d0 73 23 75 be b8 bf b7 be 74 50 01 3d 58 8d a3 3d
       -0.23939304 -0.35888457 0.031570867 0.079859436
0001e0 a1 8a af be 42 3d d2 bd 01 fc e0 3c 82 a0 91 3e
       -0.34285453 -0.1026559 0.027463915 0.2844277
0001f0 50 93 de be a3 b5 88 3e 2a 33 a0 3e a1 05 02 bf
       -0.43471766 0.26701078 0.31289035 -0.5078984
000200 d0 cd f4 3e 63 7c a2 be 65 e6 8c be 39 b7 b3 3e
       0.47813272 -0.31735525 -0.27519527 0.35100725
000210 0b 79 32 bd 0b 03 96 3e 9b b2 d6 3e e1 99 30 bd
       -0.043572467 0.29299197 0.4193314 -0.0431155
000220 26 dc 37 3d 80 b4 96 3d 4d 6f 1f 3e 85 0c e1 3d
       0.044887684 0.073586464 0.15569802 0.10988716
000230 97 6d 9b 3e f7 70 14 be 9b 16 15 3e 3a 2c e7 be
       0.30357048 -0.14496218 0.14559405 -0.4515093
000240 86 cf e9 3e 54 31 ed 3e f0 93 2d be 52 68 9a 3d
       0.4566614 0.46326697 -0.16950965 0.07539429
000250 9c ab 74 3c 10 b7 30 3e 76 43 95 3e 50 01 b0 3d
       0.014933493 0.17257333 0.2915303 0.08594
000260 14 47 53 3d fd 05 26 be bb 25 f7 3e e5 fc 4e bf
       0.051581457 -0.16213222 0.48270974 -0.80854636
000270 d0 c9 3c 3e f4 48 2e bf 37 aa 1c bd 85 a1 94 be
       0.1843636 -0.6808007 -0.038248267 -0.2902948
000280 d5 68 03 3f ae 30 0b 3f 13 1c 9e be 85 a3 6d 3a
       0.51331836 0.54371154 -0.30880794 0.0009065199
000290 57 3e 0f bf dc 9d 0e 3f 68 03 40 bd 5d 04 03 bf
       -0.559545 0.55709624 -0.04687825 -0.5117853
0002a0 14 7b b7 be 39 e5 fb 3e 48 d6 94 3b d6 b1 c3 3e
       -0.3583609 0.4919832 0.004542146 0.38221616
0002b0 ba 4f 0c 3f 5f 6c c0 be a2 e8 fa 3d fc 9c 5d be
       0.54809153 -0.3758268 0.122514024 -0.21641916
0002c0 3a 54 9e 3e a2 a0 2b 3f b9 de c7 3d 34 e3 d3 bd
       0.30923635 0.6704198 0.09759278 -0.1034607
0002d0 d8 7b 0d be 06 76 5f be 03 17 b2 bd ba 1c 0b 3f
       -0.13816774 -0.21822366 -0.086957954 0.5434071
0002e0 5e b6 1c 3f c0 50 d6 3e 37 c0 b8 3e c0 2e e7 be
       0.6121577 0.41858482 0.36084148 -0.45152855
0002f0 cd dd 14 bd 41 72 14 3e cf 83 a9 3e ce 22 65 3e
       -0.03634434 0.1449671 0.33108374 0.22376558
000300 62 eb af be e3 b1 8e 3e 68 c0 75 3e 8f c0 e1 3c
       -0.3435927 0.27870092 0.23999178 0.02755764
000310 05 15 2d bf eb 60 ba 3d ef 0b 48 3f b7 9b d9 3d
       -0.676102 0.09100517 0.7814321 0.106254034
000320 03 48 b1 be 5b a0 a7 be 2b 7e 07 bf 6f 5d 8b 3d
       -0.34625253 -0.3273953 -0.5292689 0.068049304
000330 71 86 3b 3d 57 ab a5 3e 0e 5c f3 3e 14 97 58 be
       0.04578251 0.32357284 0.4753117 -0.21151382
000340 ab 17 27 be 79 c8 be be 3c 8a 8e 3e e7 de 71 3e
       -0.16317622 -0.37262323 0.2783984 0.23620187
000350 10 ee 42 3e ec db df 3e fc 59 c1 be 13 5a 8e be
       0.19036126 0.43722475 -0.37763965 -0.27803096
000360 e4 88 3e 3e ae 0b a9 3e ca 24 7e be c0 30 fd be
       0.18606907 0.33016723 -0.24818721 -0.49451256
000370 d1 49 81 be c5 d9 bc 3d 85 39 27 bd 41 e9 52 be
       -0.2525163 0.09221224 -0.04082634 -0.20596792
000380 17 6f b9 be 54 de 44 be 99 9a 29 3f 18 33 2a bf
       -0.36217567 -0.19225436 0.6625152 -0.6648421
000390 f4 d6 ef 3e fc f0 b2 3e 37 9b ca be 6b c6 91 3e
       0.46843684 0.3494948 -0.39571545 0.28471693
0003a0 45 bd 98 3e bf d8 31 bf e0 99 cd 3e 13 0d bd be
       0.298319 -0.69471353 0.4015646 -0.36924037
0003b0 27 c7 64 3e ba 43 f4 3b d7 96 9f 3c a8 2d de 3e
       0.22341596 0.0074543627 0.019481106 0.43394208
0003c0 5a a1 a3 bd 53 c3 0e 3f d9 df 93 3e b3 e7 2f be
       -0.0798976 0.5576679 0.2888172 -0.1717823
0003d0 26 73 85 be 6a 9e 10 bf 8c e1 88 be c2 0f dc 3e
       -0.26064414 -0.5649172 -0.2673458 0.42980772
0003e0 42 86 3d 3e 19 de 1f 3f 93 d2 67 3e c3 a9 03 bf
       0.18508247 0.6244827 0.22638921 -0.5143091
0003f0 32 e0 64 be f5 4a bb 3d 4d 6b 17 3f 0d 47 42 bf
       -0.22351149 0.09145156 0.59148103 -0.75889665

linear1.bias f4 [128]
000000 89 b7 c4 3d b2 b2 1c 3f 6e f7 1b 3d 33 34 e3 3e
       0.09605319 0.6121017 0.038077764 0.44375762
000010 5f 52 e1 bd e8 1c 30 be bc d1 71 3e 2a 2f 7e 3e
       -0.11002039 -0.17198527 0.23615164 0.24822679
000020 f0 6b bc be 1f 84 29 bd b6 36 3d 3e ee 22 48 bd
       -0.368011 -0.041385766 0.18477902 -0.048861437
000030 37 1c 55 3e c0 72 94 3e 2a cb ab 3c c2 dd ef bd
       0.20811544 0.28993797 0.0209709 -0.11712219
000040 5e df cb be 9c aa c6 3e 6f 00 c0 3d e1 d4 eb 3b
       -0.39818853 0.3880204 0.09375083 0.007197008
000050 d9 73 2e be 80 cd a9 be 96 52 2c 3d c2 fc 02 be
       -0.1703638 -0.33164597 0.042070948 -0.12791732
000060 a8 02 0d ba ff 1e 2a 3e 08 f5 31 bb ea 8e 89 be
       -0.0005379119 0.16613387 -0.0027154107 -0.26866847
000070 4d 7f 3a be a3 81 8c be df e6 b8 be 63 83 94 be
       -0.18212624 -0.27442655 -0.3611364 -0.2900649
000080 8e c5 84 3d 6b b0 02 3e d6 ac be be 32 a1 23 3d
       0.06482993 0.1276261 -0.37241238 0.03994865
000090 dd a0 6e bd 56 86 3f be 27 cd 18 bd 6f c7 cd 3d
       -0.05825888 -0.18703589 -0.037305024 0.100478046
0000a0 61 e6 56 bd cb fc ee bc 2d 58 a1 be 13 d7 53 bd
       -0.0524658 -0.029173275 -0.31512585 -0.051718783
0000b0 ec 02 ea be 62 5c 6e 3d c0 88 18 bc df da 38 be
       -0.45705354 0.058193572 -0.0093099475 -0.18052243
0000c0 34 fa f4 be 53 48 91 3e 03 03 89 be a4 6a 9a be
       -0.4784714 0.28375491 -0.2676011 -0.30159485
0000d0 f0 d1 02 3e fe 88 42 3d 44 5f 93 be 77 34 80 3e
       0.12775397 0.047493927 -0.2878362 0.25040027
0000e0 e2 bf 32 3e 59 65 2c 3d af 69 ff 3c 47 31 1b be
       0.1745601 0.04208884 0.031178324 -0.15155517
0000f0 66 e0 06 3f f2 4b a9 3d 98 b9 9a be f0 2f d7 3e
       0.52686155 0.082664385 -0.30219722 0.4202876
000100 de ed 8d 3e c8 d3 60 3e 58 dd ed 3c 0f 3e c7 3e
       0.2772054 0.21955788 0.029036209 0.38914534
000110 37 d1 89 3c 85 23 c5 bb 13 bd 2e 3e a7 00 0b 3e
       0.016823394 -0.006016197 0.17064314 0.13574468
000120 1c e2 4b be 5f 74 9d 3d 67 15 3f be 56 e1 80 3c
       -0.19910473 0.07688212 -0.18660508 0.015732449
000130 8e 03 b1 3d 0f 73 5a 3e 7b e0 79 3d be 05 13 3d
       0.08643256 0.21332954 0.061005097 0.035894148
000140 a8 33 14 3f 2a 4c 16 3f db 05 33 3f 02 73 04 be
       0.5789132 0.5870997 0.6993081 -0.12934497
000150 e9 ba 13 3f df 78 37 3e 01 a6 9c bc f3 e6 0a 3d
       0.5770708 0.17917202 -0.019122126 0.033911657
000160 92 c9 91 bd 08 7e 5e 3e 73 cb 9e bc 70 ef 4b be
       -0.071185246 0.21727765 -0.019384122 -0.19915557
000170 fd 12 e4 bd 5b 4e 8d 3b d9 ba 31 be 02 94 5a be
       -0.11136434 0.004312319 -0.17356433 -0.21345523
000180 9d 86 a0 be e5 fa cb bc c6 5d b6 3e 1c 8b a2 3d
       -0.31352702 -0.02489991 0.35618418 0.07936689
000190 f5 87 da bd bb b8 09 be 51 dd e4 be d2 0b 29 3e
       -0.10670463 -0.13449375 -0.447001 0.16508415
0001a0 69 a4 a0 bd ce 7f a1 be d3 30 53 be 3e 63 cc be
       -0.07843859 -0.3154282 -0.20624094 -0.39919466
0001b0 8e a3 06 be 56 83 49 be f3 7e 7c be 63 13 ac 3d
       -0.13148329 -0.19679007 -0.24657802 0.08402135
0001c0 dc c5 c3 bb a0 e5 e3 be c5 2b c1 3d b8 55 0e be
       -0.0059745144 -0.44511127 0.094321765 -0.13899887
0001d0 bf a3 dd be 41 e9 b0 be 65 18 3f be 1a 57 39 3d
       -0.4328899 -0.3455296 -0.1866165 0.045249082
0001e0 11 36 3c be 9f 15 2d 3f 8f 81 71 b9 07 c7 99 3e
       -0.1838 0.67611116 -0.00023031815 0.30034658
0001f0 52 62 a9 bd de d4 8c be f9 e3 13 3f 33 de 26 3e
       -0.08270706 -0.27506155 0.57769734 0.162957

linear2.weight f4 [3, 128]
000000 79 b9 2c be 3a ff 1c 3f a1 46 24 bf dc e9 d0 3e
       -0.16867627 0.61326945 -0.6417027 0.4080342
000010 be d5 6d be cb 19 98 bc b9 7c fe 3e 8e 27 e9 3c
       -0.23226067 -0.018566987 0.4970453 0.028461244
000020 66 2f 98 3b 2f ef bd be 59 76 14 3e ed 75 05 bf
       0.004644322 -0.37096545 0.14498271 -0.52133065
000030 c8 c1 93 3d c1 8b 20 3e b6 a8 44 bf 37 06 14 bf
       0.07214695 0.15678312 -0.7681993 -0.57821983
000040 1d 9e bb be a3 e6 ce 3e a9 8f 6c bf d8 92 7d 3e
       -0.36644068 0.40410337 -0.9240671 0.24763048
000050 99 af 9f be ee 88 79 be 27 8f 81 bf b8 2c 59 be
       -0.31188658 -0.24368641 -1.0121812 -0.21208465
000060 c0 98 c8 be ed 5c f6 be a4 52 a3 be 29 7e 86 bd
       -0.3917904 -0.48117772 -0.31898987 -0.06567032
000070 30 14 1f bd b2 2d 9a bd b2 36 d9 be bf a9 dc bb
       -0.03883761 -0.07528247 -0.42424542 -0.0067341025
000080 98 99 dc 3e b4 7e 16 3c 1c bc a0 be 77 37 0a 3c
       0.43085933 0.009185482 -0.31393516 0.008436075
000090 f7 e7 d1 bd 58 4d 3d bf eb ce ae 3e 32 a9 23 3f
       -0.10249322 -0.7394614 0.3414224 0.63930047
0000a0 f7 6f 60 bd ad 9b 8e 3b 71 88 c7 3c 25 be 97 3c
       -0.054794278 0.004352054 0.024357053 0.018523285
0000b0 85 3d 27 bf e8 aa 0d be 24 89 39 be d4 c0 87 be
       -0.65328246 -0.13834727 -0.18118721 -0.26514304
0000c0 1f 43 87 3e f7 56 90 3e a1 e3 77 be f4 7d 24 bd
       0.26418397 0.2819135 -0.24207927 -0.04015918
0000d0 56 ad d7 3d 28 08 4f 3e b3 b6 0d bd a1 fd 6c 3e
       0.10531108 0.20217955 -0.034598064 0.23143627
0000e0 b9 d9 bc 3e 0e 43 36 3e 6f b9 6d 3e d1 a2 05 3f
       0.3688486 0.17799017 0.23215269 0.52201563
0000f0 ea 61 2d 3f 06 50 e5 bc fa 5a 33 be 0f e7 41 3f
       0.6772753 -0.02799226 -0.17515174 0.7574319
000100 97 eb ba 3e 5e bb 18 3f c5 03 20 3f 56 f2 c6 3d
       0.36507866 0.596609 0.6250575 0.09714191
000110 57 47 73 be fd 92 3e bf 82 30 ac 3e b2 ae 77 3c
       -0.23757683 -0.74443036 0.3363076 0.015117334
000120 44 a6 d4 be df 89 cc be 13 ac c2 bc f8 c1 a6 3e
       -0.415331 -0.39948937 -0.023763692 0.3256986
000130 ec 3f 2e 3e 3b 64 57 bf b8 9e fe bc ab a4 ca be
       0.17016572 -0.84137315 -0.031081542 -0.39578757
000140 1d c5 8f 3e 5f 06 94 3e a0 76 ea 3e e4 60 13 bf
       0.28080073 0.2891111 0.4579363 -0.5756972
000150 f6 fc 38 3e bc aa df 3b cc 40 55 bf 25 39 a0 bd
       0.18065247 0.006825773 -0.83302 -0.078233995
000160 76 8a f4 3e 10 93 32 3f a4 dd 73 3e a8 6b e1 bd
       0.47761887 0.6975565 0.23815018 -0.11006862
000170 d9 56 a0 bd 9f fa 7c 3e e7 fa 17 bf 6e 73 ab be
       -0.07829065 0.2470498 -0.5936722 -0.33486503
000180 45 02 ff be cd 4c d4 3e 83 dc 5f 3e 41 9d 17 3f
       -0.4980642 0.41464844 0.21861462 0.59224325
000190 b7 34 9d bd 3d f2 35 bf 4c 22 20 be ab 08 d7 3e
       -0.0767607 -0.7107275 -0.15638083 0.419988
0001a0 d8 3a d6 3b 93 5d 7e bc 02 1d 4f bd 98 da 4f be
       0.0065377764 -0.0155252395 -0.050564773 -0.2029823
0001b0 18 69 b6 3c 2d 90 97 be 27 99 8e be 0c b5 35 bf
       0.02226691 -0.29602185 -0.2785122 -0.7097938
0001c0 76 be b1 be 15 37 80 be 5b 60 0a bf 6a 8b c1 bc
       -0.34715623 -0.25042024 -0.54053277 -0.023626048
0001d0 0b 4e 3d be e0 8c 1f bf 93 c7 f8 3d fb 98 9f 3d
       -0.18486802 -0.62324333 0.12147441 0.077928506
0001e0 9c f0 50 3e 8a 95 58 3e dc 30 46 bf a2 5c b4 3e
       0.20404285 0.21150795 -0.77418303 0.35226923
0001f0 90 bd d2 bd 6f 82 8e ba 0e a4 04 3f 12 0c 19 3f
       -0.102900624 -0.0010872612 0.5181283 0.5978404
000200 db a3 94 3e ad 92 7a 3e 30 b1 38 3e 07 1b ef 3e
       0.29031262 0.24470015 0.18036342 0.46700308
000210 cd b0 84 be 16 c1 86 3e 54 ab 68 3e 3c eb 9c bd
       -0.25916138 0.26319188 0.22721606 -0.07662055
000220 c7 16 8c bc d6 ff 63 3e 72 f4 af 3e 5c bd a5 bd
       -0.017100705 0.22265562 0.34366184 -0.08092758
000230 f5 da ad bd 2a 5a 22 be da 11 98 3e aa f4 a5 3d
       -0.08489028 -0.15854707 0.2970112 0.081033066
000240 07 22 02 bf 8f 25 90 3d 3e 0a 3a 3e 6f ad 9b be
       -0.5083317 0.07038414 0.1816797 -0.30405757
000250 1e 83 f4 be 53 53 9d be cb 6a 94 3e ab d1 1e 3e
       -0.47756284 -0.30727634 0.28987727 0.1550967
000260 36 27 34 3e 24 98 22 3e a1 40 33 3e 22 cc ec 3d
       0.17593083 0.1587835 0.17505123 0.11562373
000270 15 11 7f be dc fd e8 bb 59 74 34 bd 03 b6 30 3c
       -0.2490886 -0.0071103405 -0.04405627 0.0107855825
000280 3b 28 96 bd 57 49 b0 3e 3f cd a1 be 9c fb 82 3c
       -0.07331892 0.34430954 -0.31601903 0.015989117
000290 93 76 07 be ce 62 90 3d 66 67 39 3e 3f 53 16 bf
       -0.13228826 0.070500955 0.1810585 -0.58720773
0002a0 7d e1 7e be b1 8d 89 bd ed 07 84 bc 10 4c 49 bc
       -0.24890704 -0.067164786 -0.01611706 -0.012286201
0002b0 8d 7f ea bd b6 a0 e0 3e 7b 64 77 3e 83 8f 99 be
       -0.1145011 0.43872613 0.24159424 -0.29992303
0002c0 7b 12 6c 3d af b8 c3 3e 9c 7c d5 bd 2c 86 26 bd
       0.05763481 0.3822684 -0.10424158 -0.0406553
0002d0 35 c1 5b 3e 8c 9b 92 be 04 74 da bc 4c 67 8a 3e
       0.21460421 -0.28634298 -0.026666649 0.27031934
0002e0 46 a3 d2 3e f7 6f 81 bc 7d d2 be 3e e2 72 b0 3c
       0.41140193 -0.01580046 0.37269965 0.021539155
0002f0 54 26 87 3e bd f3 6f 3e 6a 16 c0 be 02 d9 7c 3e
       0.2639643 0.23432823 -0.375171 0.24692157
000300 86 14 8d 3e c5 c2 be 3e ed 72 ee bd 6e c8 77 bd
       0.2755472 0.37257972 -0.11643014 -0.06049388
000310 17 ed f7 be ba 86 23 3e fb e1 41 be 81 fc 66 be
       -0.48423073 0.15969363 -0.18933861 -0.2255726
000320 dd b6 9d bd 79 95 f2 3c da 77 27 bd 6a d5 04 bf
       -0.07700894 0.02961229 -0.040885784 -0.51888144
000330 c2 37 a5 be b3 59 c5 bd f3 08 85 3c ee ed 1b 3f
       -0.32269102 -0.096362494 0.016239619 0.60909927
000340 e9 0b 13 3e 57 86 ff 3d 95 be ad 3d 14 66 09 be
       0.14360012 0.12476795 0.08483616 -0.13417846
000350 91 d7 fb 3d d6 3f 0e be 57 69 bf 3e da 56 67 3e
       0.122969754 -0.13891539 0.37385055 0.22591725
000360 44 9e 02 3f f1 72 55 be 73 7a 53 be 40 72 de bd
       0.51022744 -0.20844628 -0.2065218 -0.10861635
000370 6e 03 b5 be f8 38 b1 be ca 02 1a 3e 00 13 33 be
       -0.3535418 -0.34613776 0.15040126 -0.17487717
000380 25 69 32 3e 46 51 83 3e 2d 78 8d 3e 02 14 05 3f
       0.17422922 0.25647944 0.2763075 0.51983654
000390 75 fd 9d be 40 51 72 bd 9c b9 1b be 92 ae d1 3e
       -0.30857435 -0.059159517 -0.15207523 0.409535
0003a0 89 cf 8d 3c 0f c4 0e bd 5c b1 61 be 3d c7 c3 be
       0.017310875 -0.034854945 -0.22040313 -0.38237944
0003b0 aa 70 91 3e ec 6e c7 bc 3a 49 cf be 1e e5 a4 3e
       0.28406268 -0.024344884 -0.40485555 0.32206053
0003c0 36 b0 2f bd 79 1e d1 be e7 05 a4 3e a6 86 9c 3e
       -0.042892657 -0.4084356 0.32035753 0.3057148
0003d0 c2 67 e0 be 5e 4a ef bd 6f 15 46 be 32 81 9a 3e
       -0.4382916 -0.11684106 -0.19344114 0.30176693
0003e0 0e bb dd bd d8 99 4a 3e cf e4 97 bc 63 c3 66 3e
       -0.108266935 0.19785249 -0.018541722 0.22535472
0003f0 47 fb 9f be 8e fe 11 3b ea a3 dd 3e 50 9e 1f 3e
       -0.31246397 0.002227697 0.4328912 0.15587735

linear2.bias f4 [3]
000000 f0 d6 40 3e f6 53 6a 3d c9 1b 40 3d
       0.18831992 0.057208978 0.046901498
